mvgan.pth (torch, 69976 bytes, 47 tensors)

weight f4 [64, 64]
0	0x3e626a08	0.2211076
1	0x3e223d3a	0.15843669
2	0x3dd89596	0.10575406
3	0x3cb91f48	0.022597924
4	0xbdb1bd7f	-0.08678722
5	0x3d8c95e0	0.06864524
6	0xbe067e25	-0.13134058
7	0xbde7ec2e	-0.113243446
8	0x3dbe97b3	0.09306278
9	0x3e22bbd6	0.15891966
10	0x3c21f87d	0.009885904
11	0x3c0c31be	0.008556781
12	0x3e685c86	0.22691545
13	0xbd73da10	-0.059534132
14	0xbcdca51d	-0.0269342
15	0xbda63216	-0.08115022
16	0x3e2f963d	0.17147155
17	0x3e18e49e	0.1493096
18	0xbe24f694	-0.16109687
19	0x3e54155c	0.20711273
20	0xbdc09af3	-0.09404554
21	0x3b86e519	0.004116666
22	0x3d10bbdf	0.035335418
23	0xbdaa9e89	-0.083310194
24	0x383eec16	4.5519402e-05
25	0xbdd5d0d6	-0.10440223
26	0xbd87d3cc	-0.06632194
27	0xbdc35079	-0.09536833
28	0xbd9d4fb6	-0.07681219
29	0xbd9f0823	-0.07765224
30	0xbd03fa70	-0.032221258
31	0x3bee9b09	0.007281665
32	0x3ccce153	0.025009787
33	0x3d7bf4bf	0.061512705
34	0xbe64d21d	-0.22345777
35	0xbe05bfd2	-0.13061455
36	0xbbcd3a3a	-0.0062630447
37	0x3d1bf4c3	0.03807522
38	0xbcecd2aa	-0.028909046
39	0xbd4eb187	-0.050462272
40	0xbe21c108	-0.15796292
41	0x3d91ee47	0.07125526
42	0xbdf3d43d	-0.119057156
43	0x3d871ca1	0.065972574
44	0xbab4f04e	-0.0013804527
45	0xbe4fc8a2	-0.20291379
46	0x3dcc0095	0.099610485
47	0xbe1c7beb	-0.15281646
48	0x3e32cf71	0.17461945
49	0x3dd82043	0.105530284
50	0x3d85ad76	0.06527226
51	0x3cc22550	0.023699433
52	0xbddbf0dd	-0.107393004
53	0x3d9e05f1	0.07715977
54	0x3c959fa8	0.018264607
55	0x3ad7c500	0.0016461909
56	0x3ceb3f1d	0.028716618
57	0xbdde8016	-0.10864274
58	0x3d911ab0	0.07085168
59	0xbe68fe95	-0.22753365
60	0x3cea7afb	0.028623095
61	0x3c2bb779	0.010480755
62	0xbd7ed1ff	-0.062211987
63	0x3cc6ba00	0.024258614
64	0x3db6829e	0.08911632
65	0x3e0155f2	0.12630442
66	0x3cc7dfaa	0.024398644
67	0x3e5b0312	0.2138789
68	0x3d91a530	0.07111585
69	0xbd793712	-0.060843535
70	0xbe0f04b0	-0.13966632
71	0xbe672217	-0.22571598
72	0xb92e1d8c	-0.0001660494
73	0xbcd1dcea	-0.025618035
74	0xbe1aedd9	-0.15129794
75	0xbdd83ac9	-0.105580874
76	0x3e0bf4a3	0.1366754
77	0xbe305ad2	-0.17222145
78	0x3cadf2f2	0.02123401
79	0xbe817741	-0.25286296
80	0xbdaacbf3	-0.083396815
81	0x3d77c71a	0.060492612
82	0x3da313c0	0.079627514
83	0x3d507d43	0.05090071
84	0xbdb6f8ae	-0.08934151
85	0x3e4ac789	0.19802679
86	0x3cb48416	0.02203564
87	0xbe877a1c	-0.2646035
88	0x3dadd67d	0.08488176
89	0xbe336d19	-0.17522086
90	0x3e09ca6a	0.13456121
91	0xbd60100b	-0.0547028
92	0x3dc54cd7	0.09633797
93	0xbd9dc727	-0.07704001
94	0x3cf00a16	0.029301684
95	0xbe82226d	-0.2541689
96	0x3d1aec93	0.03782327
97	0x3dcad2a2	0.09903456
98	0x3d5e2e5b	0.054243427
99	0xbe108b8f	-0.14115737
100	0x3d4c0063	0.049805056
101	0x3c0cea86	0.008600837
102	0xbe219020	-0.15777636
103	0x3d3c85d2	0.04602606
104	0x3cc1da58	0.023663685
105	0xbc626b95	-0.013819595
106	0xbbca8c3b	-0.0061812676
107	0x3d45d14b	0.0482953
108	0x3cd1277b	0.025531521
109	0x3e1c23a4	0.15247971
110	0x3e5a487e	0.21316716
111	0xbe260a40	-0.16214848
112	0xbdb1b5d7	-0.08677261
113	0x3e5e5e58	0.21715677
114	0xbde8e5a2	-0.11371924
115	0x3dbcddf6	0.09222023
116	0xbe20814b	-0.15674321
117	0x3dab2fda	0.08358736
118	0x3e760018	0.24023473
119	0x3e80648f	0.2507672
120	0xbe3f30b6	-0.18670925
121	0xbd89e5e0	-0.06733298
122	0x3df6a6c3	0.12043526
123	0xbe1198cb	-0.14218442
124	0xba1daeb6	-0.00060151087
125	0xbcf91423	-0.03040511
126	0xbd837559	-0.06418867
127	0x3dd01b3f	0.10161447
128	0xb9b313a7	-0.00034156183
129	0x3e4f7032	0.20257643
130	0x3cb8bb11	0.022550138
131	0x3d9d4318	0.07678813
132	0x3e019fb2	0.12658575
133	0xbe5859f5	-0.21128066
134	0x3d3b0382	0.045657642
135	0x3e1cc27c	0.15308565
136	0xbea463aa	-0.32107288
137	0x3e2bb583	0.1676846
138	0xbe000ab9	-0.1250409
139	0xbe3a087c	-0.18167299
140	0x3db12be4	0.086509496
141	0x3e162926	0.14664134
142	0xbe00316f	-0.12518857
143	0xbe8ee2c8	-0.27907395
144	0xbde1982f	-0.11015355
145	0x3c914f74	0.017738082
146	0x3d4f5916	0.05062207
147	0x3d059a4f	0.032617863
148	0xbd771b76	-0.060328923
149	0x3dc7980d	0.09745798
150	0xbd6f8ef9	-0.05848596
151	0x3dbdbdb6	0.092647
152	0xbdb66e02	-0.08907701
153	0x3d6fc13b	0.05853389
154	0x3e00faf9	0.12595738
155	0xbdd7c8fe	-0.10536383
156	0x3da3674c	0.07978687
157	0xbec9d79d	-0.39422312
158	0xbc82eaf2	-0.015981171
159	0xbe336c65	-0.17521818
160	0xbd968a60	-0.07350612
161	0x3daead8c	0.08529195
162	0xbe9f9b1b	-0.31173024
163	0xbd75d13b	-0.06001399
164	0xbdcfd9fd	-0.10149
165	0x3e6b6fee	0.22991917
166	0xbda85013	-0.08218398
167	0xbd5e7b82	-0.054317005
168	0xbdc85937	-0.097826414
169	0x3da01350	0.078161836
170	0x3d7f74a3	0.062367093
171	0xbe87fdbf	-0.2656078
172	0xbd7d97d2	-0.061912365
173	0xbc5c4279	-0.013443583
174	0x3d9bcf9a	0.07607956
175	0xbe030ece	-0.12798616
176	0xbd14bb28	-0.0363113
177	0xbe290056	-0.16504034
178	0x3d278ae2	0.040903933
179	0x3d969ceb	0.073541485
180	0xbcbf2bf9	-0.023336397
181	0xbd7218eb	-0.059105795
182	0xbd93044f	-0.07178556
183	0xbded4bb2	-0.11586703
184	0x3e09b897	0.13449322
185	0xbd9334d1	-0.07187808
186	0xbd7d8bc4	-0.06190087
187	0x3d98cecb	0.07461318
188	0xbddd991f	-0.10820221
189	0x3e38695f	0.18008946
190	0xbe86f1c1	-0.2635632
191	0x3e46609c	0.19372791
192	0x3e76bfed	0.24096651
193	0xbd280572	-0.041020818
194	0xbe3c0e15	-0.18364747
195	0x3d2e212f	0.042512115
196	0x3e026eed	0.12737627
197	0x3cffd565	0.031229684
198	0x3c82f1c9	0.015984433
199	0xbe2e08ad	-0.16995497
200	0x3dcc3c87	0.09972482
201	0xbdc7f8eb	-0.09764274
202	0xbb2e6516	-0.0026610545
203	0x3dcfe87b	0.10151764
204	0x3cd9d01d	0.026588494
205	0xbe14e46d	-0.14540263
206	0x3e47701c	0.1947636
207	0x3e1a1cfa	0.15050116
208	0x3c682501	0.014168979
209	0x3ce0e746	0.02745403
210	0x3dcc2d26	0.09969549
211	0xbcf4b549	-0.0298716
212	0xbda73bc7	-0.081656985
213	0xbd8dcd16	-0.06923883
214	0xbb7f67ea	-0.003897185
215	0xbe443902	-0.19162372
216	0xbbd76773	-0.0065736114
217	0xbe43af13	-0.19109754
218	0x3e4883b6	0.19581494
219	0xbda6c044	-0.081421405
220	0xbe752958	-0.23941553
221	0x3d53d536	0.051717006
222	0x3dc5b3e3	0.09653451
223	0x3e292adb	0.16520254
224	0xbe22627b	-0.1585788
225	0x3d76f371	0.060290758
226	0xbdf6289d	-0.12019465
227	0x3d1a7286	0.037706874
228	0xbcd5ed2a	-0.026114065
229	0xbd0b3a0f	-0.033990916
230	0xbd71c823	-0.059028756
231	0x3e66c76b	0.2253701
232	0xbdb74107	-0.0894795
233	0xbe040e53	-0.1289609
234	0x3dcfcad2	0.10146107
235	0x3d563fec	0.052307054
236	0x3e5190f2	0.20465448
237	0x3ce6f765	0.028194139
238	0xbda6b323	-0.08139636
239	0x3db2b91d	0.08726714
240	0xbbff01b5	-0.007782186
241	0xbd699f0f	-0.057036456
242	0x3e0aabe9	0.13542141
243	0x3d9e4b2b	0.07729181
244	0x3d76bc63	0.060238253
245	0xbd0aa49f	-0.0338484
246	0xbd1f7a71	-0.03893513
247	0xbdac3c8c	-0.08409986
248	0x3d6996cc	0.057028577
249	0x3d26fb3d	0.040766943
250	0x3e098021	0.13427784
251	0xbe82c55e	-0.25541204
252	0x3e53c02d	0.20678778
253	0xbdae3081	-0.08505345
254	0xbdee99f9	-0.11650462
255	0x3e171b67	0.14756547

user_bias f4 [1, 64]
0	0xbd8bb474	-0.06821528
1	0xbdcbad17	-0.09945124
2	0x3c1b3d5a	0.009475077
3	0xbd99e8b1	-0.075150855
4	0x3ddbdc97	0.107354335
5	0x3d9d3ccd	0.076776125
6	0x3dba960b	0.0911065
7	0x3c85ab12	0.016316924
8	0xbdf555f5	-0.11979286
9	0xbe4ed1ca	-0.20197216
10	0x3dc82716	0.0977308
11	0xbcea9a96	-0.028638165
12	0xbdab63d2	-0.083686486
13	0x3e540af9	0.2070731
14	0x3d7f1839	0.06227896
15	0xbc1c293c	-0.009531315
16	0xbe367ea4	-0.17821747
17	0xbd775c70	-0.06039089
18	0xbda1eee5	-0.07906894
19	0xbe76e417	-0.24110447
20	0x3e2a21d6	0.1661447
21	0xbe2c37d3	-0.1681817
22	0x3e102a53	0.14078645
23	0x3e6eccb9	0.23320283
24	0xbdaec8cd	-0.085343935
25	0x3eba56a5	0.3639423
26	0xbe1d99d4	-0.15390712
27	0x3cebc52a	0.028780539
28	0x3e09ecf6	0.134693
29	0x3e8b2e68	0.27183843
30	0xbcad71e7	-0.021172477
31	0xbd181ba2	-0.037135728
32	0x3dffb73d	0.12486122
33	0xbd20303e	-0.039108507
34	0xbc4d35f4	-0.01252507
35	0xbd7f9bfb	-0.062404614
36	0xbd73d631	-0.05953044
37	0xbdb19556	-0.08671062
38	0xbe4bf771	-0.1991861
39	0x3e991126	0.29895896
40	0x3e2a4381	0.16627313
41	0x3d52c025	0.051452775
42	0x3d8e45b1	0.06946886
43	0x3d131c18	0.035915464
44	0xbcc8bcd8	-0.02450411
45	0x3cd25f4f	0.025680212
46	0x3d3892df	0.045061942
47	0x3d97a9c8	0.0740543
48	0xbd3ead22	-0.04655183
49	0x3d1b6b08	0.03794387
50	0x3da8410b	0.08215531
51	0x3d27fed4	0.041014507
52	0x3d2f18f7	0.042748418
53	0x3d63be31	0.055601303
54	0x3e1ad4ed	0.15120287
55	0xbe1a29d1	-0.15055014
56	0x3e223e2f	0.15844034
57	0xbe0d39ad	-0.13791533
58	0x3dce70d0	0.10080111
59	0xbd95e072	-0.073182
60	0xbe32d2e7	-0.17463265
61	0x3c9c95df	0.019114433
62	0xbd789e2f	-0.06069773
63	0x3e932aab	0.2874349

product_bias f4 [1, 64]
0	0xbe8ff3ae	-0.281156
1	0x3d4add2a	0.049527325
2	0xbc41f70b	-0.011838685
3	0xbcf7c46b	-0.030245027
4	0x3e8b5e98	0.27220607
5	0xbd1c1886	-0.038109325
6	0xbc944eda	-0.018104006
7	0x3e245813	0.16049223
8	0x3e9ae430	0.30252218
9	0x3d86fc4c	0.065910906
10	0xbdf07bc9	-0.1174236
11	0x3e9dbd28	0.30808377
12	0xbc48aa2a	-0.0122476015
13	0x3d9d472b	0.0767959
14	0xbccdfde1	-0.025145473
15	0xbe762929	-0.24039139
16	0xbdd9a3c0	-0.10626936
17	0x3b1bc81c	0.0023770398
18	0xbded4e53	-0.11587205
19	0xbe1d5187	-0.15363131
20	0xbc71d27f	-0.014759659
21	0xbe492eb6	-0.19646725
22	0x3deea288	0.11652094
23	0x3d6c8bbb	0.057750445
24	0x3dbc802c	0.09204134
25	0xbe2cdfa8	-0.16882193
26	0xbe373b19	-0.17893638
27	0xbdc33935	-0.09532396
28	0xbd8e9ec6	-0.069638774
29	0x3e0e7880	0.13913155
30	0xbdc427cd	-0.09577904
31	0x3e5cbb10	0.21555734
32	0x3e01a70f	0.12661384
33	0xbd62d3f2	-0.055377908
34	0xbdcaeafe	-0.099081025
35	0xbddfc6c0	-0.109265804
36	0xbdfc79b1	-0.12327898
37	0x3d647d85	0.055783767
38	0x3eae64c6	0.3406126
39	0x3cf3ed47	0.029776229
40	0x3de79ab5	0.11308805
41	0x3d9e5c56	0.077324554
42	0x3d9f31e5	0.077731885
43	0x3d03d171	0.03218216
44	0x3d261d2c	0.040555164
45	0x3e2e0496	0.16993937
46	0x3dc5fdeb	0.09667572
47	0x3d16d6c5	0.036825914
48	0xbe7052c3	-0.23469071
49	0xbe62e63e	-0.22158143
50	0xbd303414	-0.043018416
51	0x3e8c20a9	0.27368668
52	0x3d85a620	0.065258265
53	0xbd2609c3	-0.040536653
54	0x3df4da5c	0.11955711
55	0x3ed14e27	0.40879938
56	0x3e128548	0.14308655
57	0x3decec29	0.115684815
58	0x3e04deae	0.1297557
59	0xbde01427	-0.10941344
60	0x3e463207	0.19355021
61	0xbeaca828	-0.33722043
62	0xbdab12d1	-0.08353198
63	0xbe7aba79	-0.24485196

view2_user_X f4 [3, 1, 3]
0	0xbd0383f9	-0.03210828
1	0xbf4e4c51	-0.805852
2	0x3d7499ea	0.059717096
3	0x3cd1fe3e	0.025633927
4	0x3f02f96d	0.51161844
5	0x3dca7dda	0.098872855
6	0xbe533228	-0.20624602
7	0x3f1e9dfd	0.6195982
8	0x3ed2d833	0.41180572

view2_user_V f4 [3, 64, 3]
0	0xbe08ed15	-0.1337169
1	0x3c139fc5	0.00901026
2	0x3e2b9eac	0.16759747
3	0xbc395edd	-0.011314121
4	0x3dcca527	0.09992438
5	0x3bdcde3e	0.0067403605
6	0xbc071d30	-0.008246705
7	0x3e0f6e5b	0.14006941
8	0xbcb4df74	-0.022079207
9	0xbb307d85	-0.0026930284
10	0xbb069740	-0.002053693
11	0x3db1891d	0.086687304
12	0x3e2404ed	0.16017504
13	0xbd0607a1	-0.03272212
14	0x3d605949	0.05477265
15	0x3c89d4f6	0.01682518
16	0xbdda581e	-0.10661338
17	0x3e451422	0.19245961
18	0x3dd4de99	0.1039402
19	0xbc914330	-0.017732233
20	0x3d841e0f	0.06451046
21	0xbd631f13	-0.055449557
22	0xbdd2bc81	-0.102898605
23	0xbd77e47b	-0.06052063
24	0x3dc18081	0.09448338
25	0xbb730089	-0.0037079176
26	0xbca5e93a	-0.020252813
27	0xbc95bc7f	-0.018278359
28	0xbc79467f	-0.0152145615
29	0xbdb755e9	-0.08951933
30	0x3cf86618	0.03032212
31	0x3dc2845a	0.094979
32	0xbca90cee	-0.020636048
33	0x3e24e99b	0.16104738
34	0x3986b78d	0.00025695228
35	0xbd844b3f	-0.064596646
36	0x3e08c779	0.13357343
37	0xbd3c8c01	-0.046031956
38	0x3dc0529d	0.09390757
39	0xbcefeabc	-0.029286735
40	0x3dbd59de	0.092456564
41	0xbab7e833	-0.0014030993
42	0xbe0a5460	-0.13508749
43	0xbd919e64	-0.07110289
44	0x3d91872d	0.07105861
45	0xbd741e40	-0.05959916
46	0xbc7d5f9b	-0.015464689
47	0xbd33aa1d	-0.043863405
48	0x3e4821e3	0.19544177
49	0x3dd82e56	0.10555713
50	0x3d0e8e6d	0.034803797
51	0x3e05eca3	0.13078551
52	0x3c8b3bce	0.01699629
53	0xbe23bd54	-0.15990192
54	0xbe1a7cf8	-0.15086734
55	0x3e022c4e	0.12712213
56	0x3da9f650	0.082989335
57	0x3dbcf664	0.09226683
58	0x3caf8be1	0.021429004
59	0x3cbd87c6	0.02313603
60	0x3cc5f972	0.024166796
61	0xbe00c542	-0.12575248
62	0x3c2a24cf	0.010384752
63	0xbdde4380	-0.10852718
64	0x3d42a9fa	0.047525384
65	0x3d5df36c	0.054187223
66	0xbd6f5f0a	-0.058440246
67	0xbd4cc0b3	-0.04998846
68	0xbde6ff4e	-0.11279164
69	0xbc49c5de	-0.012315242
70	0x3c33e84a	0.010980675
71	0x3e0dc9c3	0.13846497
72	0xbd20c181	-0.03924704
73	0xbd4bbdbb	-0.049741488
74	0xbdfc463b	-0.12318083
75	0xbd918045	-0.071045436
76	0x3e01b25b	0.12665693
77	0xbdf05b6c	-0.11736187
78	0xbe932d0e	-0.28745311
79	0x3dcd3b91	0.10021127
80	0x3b2d4016	0.0026435903
81	0x3d001392	0.031268664
82	0xbe9e82b9	-0.30959108
83	0xbdba1f37	-0.09087985
84	0x3d7cea33	0.061746787
85	0x3cbbf2aa	0.02294286
86	0x3d9abbdd	0.07555363
87	0xbd6b2d10	-0.05741602
88	0x3d1281a5	0.03576817
89	0xba5b0e71	-0.0008356339
90	0xbd21a9b2	-0.039468475
91	0x3d807929	0.062731095
92	0xbc532e4a	-0.012889454
93	0xbdf91782	-0.12162687
94	0xbcad6fe8	-0.021171525
95	0x3dc6e3a1	0.097113855
96	0xbe009857	-0.12558113
97	0x3dcc6936	0.09981005
98	0xbd33c517	-0.04388913
99	0xbd82f606	-0.063945815
100	0x3d86600e	0.0656129
101	0xbde46ffc	-0.11154172
102	0x3e01259a	0.12612
103	0x3d8bab6c	0.068198055
104	0xbdd4d631	-0.10392416
105	0xbd00fdd4	-0.03149207
106	0x3c7aee8b	0.015315662
107	0xbdd368a2	-0.103226915
108	0x3e092f39	0.1339692
109	0x3de72720	0.112867594
110	0xbd7e951a	-0.062153913
111	0xbcf64236	-0.030060869
112	0x3c3cc3e5	0.011521314
113	0xbdd417ca	-0.103561
114	0x3d267d32	0.04064674
115	0xbd38c476	-0.045109235
116	0xbd8b340a	-0.06797035
117	0x3d184a3e	0.037180178
118	0x3d32ec92	0.043682642
119	0xbcdbef78	-0.026847586
120	0xbda8ef01	-0.082487114
121	0xbe113d77	-0.14183603
122	0xbe665b12	-0.22495678
123	0x3e1f022a	0.1552817
124	0xbdba29dc	-0.09090015
125	0x3e08d26c	0.1336152
126	0xbddb5ac7	-0.10710674
127	0xbd282d41	-0.041058782
128	0x3dc746aa	0.09730275
129	0x3c4e797b	0.012602205
130	0x3c2fc0c5	0.010727112
131	0xbcfed25d	-0.031106168
132	0x3d777eb7	0.06042358
133	0x3e2356d5	0.15951093
134	0x3daeb77a	0.08531089
135	0x3d6944fd	0.056950558
136	0x3e2dc838	0.16970909
137	0xbd98b6e0	-0.07456756
138	0xbd951a9f	-0.07280468
139	0xbdacf671	-0.084454425
140	0xbd3f3947	-0.046685483
141	0x3c9fbaca	0.019498248
142	0x3db2ff65	0.08740119
143	0x3dcc1e75	0.09966747
144	0xbe051854	-0.12997562
145	0xbe08b030	-0.1334846
146	0x3da83a00	0.082141876
147	0x3cb1b0e4	0.021690793
148	0xbd85711d	-0.06515715
149	0xbdb12b5d	-0.08650849
150	0x3df354ea	0.118814304
151	0xbe62d5a5	-0.22151811
152	0xbda3d1ce	-0.079990014
153	0x3d885d11	0.06658376
154	0x3d34b9b4	0.044122413
155	0xbdfce068	-0.123474896
156	0xbd0c0232	-0.03418178
157	0x3d9b372d	0.07578883
158	0xbe3b5c3c	-0.18296903
159	0x3e901c02	0.28146368
160	0x3e574dd6	0.21025786
161	0x3ddf7cde	0.109124884
162	0xbe2b3d80	-0.16722679
163	0x3cee3fe8	0.029083207
164	0x3c315b72	0.010825025
165	0x3a2b21a0	0.0006528143
166	0x3ba457ab	0.0050153336
167	0xbd9fde4f	-0.07806074
168	0x3d05dd8c	0.032681987
169	0xbe0acc90	-0.13554597
170	0x3cf60762	0.030032817
171	0x3e28d1b6	0.16486248
172	0x3d0426cb	0.03226356
173	0xbd4b8dd9	-0.049695823
174	0xbde99754	-0.11405817
175	0xbe1e1294	-0.15436774
176	0x3da12560	0.07868457
177	0xbd88c47d	-0.06678102
178	0x3beae07e	0.007167875
179	0xbe4d30b5	-0.20038112
180	0x3e03a6ea	0.12856641
181	0x3e36d960	0.1785636
182	0x3da9bbe3	0.0828779
183	0xbd2b5bd8	-0.041835636
184	0x3cec9892	0.028881345
185	0xbd850e78	-0.064969
186	0x3e001670	0.12508559
187	0x3d07befe	0.03314113
188	0xbd1643a0	-0.036685586
189	0xbc776d0c	-0.015101682
190	0xbd7a6003	-0.06112672
191	0x3cc4e601	0.024035456
192	0xbd204da4	-0.039136544
193	0xbd71a62f	-0.058996376
194	0xbcb1f2a1	-0.02172214
195	0xbe6bcfb4	-0.23028451
196	0x3e0af663	0.13570552
197	0x3d8e196e	0.06938444
198	0xbce05820	-0.027385771
199	0xbc4c33bc	-0.012463506
200	0x3dad28dc	0.08455059
201	0xbd9ce4d7	-0.07660835
202	0xbc7f4047	-0.01557929
203	0x3c33f4ad	0.010983628
204	0x3e092068	0.13391268
205	0x3c8cbf7a	0.017181147
206	0x3dc50e64	0.096218854
207	0xbd0a7fe8	-0.033813387
208	0x3e7738ac	0.24142712
209	0x3dd02948	0.10164124
210	0xbabcb10e	-0.0014396028
211	0x3dd0d6a6	0.10197191
212	0x3d988938	0.074480474
213	0xbe33350a	-0.17500702
214	0xbda207e1	-0.07911659
215	0xbce0c672	-0.027438376
216	0x3d6cf800	0.0578537
217	0xbdc83d8b	-0.097773634
218	0xb9bfde72	-0.00036596094
219	0x3d0823b5	0.033237178
220	0x3ded6890	0.11592209
221	0xbe4b9689	-0.19881643
222	0x3d87480f	0.06605541
223	0xbe40780e	-0.18795797
224	0x3e263261	0.16230156
225	0xbd959129	-0.07303078
226	0xbe312fd0	-0.17303395
227	0x3ca2f27b	0.019891014
228	0x3e0003d8	0.12501466
229	0x3dbb4b67	0.09145241
230	0xbdd63fdc	-0.10461399
231	0xbb3d7ef8	-0.002891479
232	0x3d345a43	0.044031393
233	0x3d8d14ca	0.06888731
234	0xbde4b249	-0.11166818
235	0x3cf9b8a3	0.03048355
236	0x3df9f0cf	0.12204134
237	0x3d81ee5d	0.06344292
238	0xbc8715b4	-0.016489841
239	0xbe133303	-0.14374928
240	0xbd7d5139	-0.061845038
241	0xbe1b6e09	-0.15178694
242	0xbe7ff0df	-0.24994229
243	0xbe179838	-0.1480416
244	0xbd6b67b4	-0.057471946
245	0x3b6f0467	0.003647113
246	0xbc2f9b5e	-0.010718195
247	0x3c5617a6	0.013067162
248	0xbcd79954	-0.02631823
249	0x3eb607c7	0.3555281
250	0x3e3795fa	0.17928305
251	0xbce4631f	-0.027879296
252	0xbe0db652	-0.13839081
253	0xbdca2f08	-0.09872252
254	0xbddf6b6b	-0.1090916
255	0x3e025333	0.1272705

view2_user_W_p f4 [3, 64, 3]
0	0xbd9fcc34	-0.078026205
1	0xbd9d9dec	-0.07696137
2	0x3de01321	0.109411485
3	0x3d929bdc	0.07158634
4	0x3d2d41e6	0.042299174
5	0xbe8f6b5c	-0.28011596
6	0x3da09bbd	0.07842205
7	0xbce15bb4	-0.027509548
8	0x3d21473a	0.039374568
9	0x3e13093f	0.14358996
10	0xbd883165	-0.06650046
11	0xbcea58c3	-0.028606778
12	0xbdcfa16a	-0.10138209
13	0x3ddd611d	0.108095385
14	0xbd882ca6	-0.06649141
15	0xbd7d90c2	-0.06190563
16	0x3daa71da	0.08322497
17	0xbc38e84d	-0.011285854
18	0x3e1404ad	0.14454909
19	0xbe671550	-0.22566724
20	0xbad896a7	-0.001652439
21	0x3dd27ca5	0.1027768
22	0x3be1a2b0	0.006885849
23	0xbafc5c48	-0.0019253576
24	0x3d0e1df3	0.03469653
25	0x3d803cce	0.062615976
26	0x3db682b6	0.0891165
27	0xbd208221	-0.0391866
28	0x3d34d8a3	0.044151913
29	0x3dac8932	0.084246054
30	0xbcb0e143	-0.021591788
31	0x3cd3be34	0.025847532
32	0xbe1f465a	-0.1555418
33	0x3d757bcf	0.059932526
34	0x3de2bd92	0.11071314
35	0xbe0c1157	-0.1367849
36	0xbcdb1830	-0.026744932
37	0x3bc5288f	0.006016798
38	0xbd0c4277	-0.034243073
39	0x3e6df0f9	0.23236455
40	0xbc041c35	-0.008063366
41	0xbd801381	-0.0625372
42	0xbd9799b8	-0.074023664
43	0x3df06d60	0.117396116
44	0xbe6225e9	-0.22084774
45	0xbdd08997	-0.10182493
46	0x3d480476	0.04883238
47	0xbd832f7e	-0.06405543
48	0xbc234dd5	-0.009967287
49	0x3e36c076	0.17846856
50	0xbd2229cc	-0.03959064
51	0x3d90f47b	0.07077881
52	0xbc0b7b35	-0.008513262
53	0xbc014c3e	-0.007891713
54	0xbe06280f	-0.13101219
55	0x3e4a4401	0.19752504
56	0xbd16e40d	-0.03683858
57	0x3df220a4	0.11822632
58	0xbcdc8159	-0.026917147
59	0xbd8ec43e	-0.06971024
60	0x3dfc258e	0.123118505
61	0xbdb41148	-0.08792359
62	0x3ce73101	0.02822161
63	0xbbd40673	-0.0064704954
64	0x3dc38cb7	0.095483236
65	0xbc856c9e	-0.016287144
66	0xbe0a5aba	-0.13511172
67	0x3d9204b2	0.07129802
68	0x3d30af85	0.04313614
69	0xbdbfbf41	-0.09362651
70	0x3e548f50	0.20757794
71	0xbca1431d	-0.019685322
72	0xbdd64803	-0.10462954
73	0x3ca15ad2	0.019696627
74	0x3e054790	0.1301558
75	0x3d42c37f	0.04754972
76	0xbe93527c	-0.28773868
77	0xbd5438e3	-0.051812064
78	0xbd4a641d	-0.04941188
79	0xbdbccca9	-0.09218723
80	0x3de6b57b	0.112650834
81	0x3c6e300a	0.014537821
82	0xbd219f34	-0.03945847
83	0x3e018fee	0.12652561
84	0x3e08482f	0.13308786
85	0xbd788eef	-0.060683187
86	0xbc4e8c85	-0.012606745
87	0xbe03cc41	-0.12870885
88	0xbcb58407	-0.022157682
89	0x3da2a6ee	0.079419956
90	0x3c086936	0.0083258655
91	0x3a5bcdc9	0.00083848514
92	0x3db8d637	0.09025233
93	0x3e15d8c4	0.14633471
94	0xbe4680c1	-0.19385053
95	0x3caadb4b	0.02085652
96	0xbdd67a6e	-0.1047257
97	0xbd988e0c	-0.07448968
98	0x3dbe3b35	0.092886366
99	0x3e08160c	0.1328966
100	0xbd642aaa	-0.05570475
101	0xbbf4f0ce	-0.007474995
102	0xbe06285a	-0.1310133
103	0x3db845e7	0.08997708
104	0xbce56c9c	-0.02800589
105	0x3c478bb9	0.012179309
106	0xbdbfd606	-0.093669936
107	0xbe840c2e	-0.25790542
108	0x3d07b6e8	0.033133417
109	0xbb30b506	-0.0026963367
110	0xbdd45cdf	-0.10369276
111	0x3dba8249	0.09106881
112	0xbe30ed26	-0.17277965
113	0xbb060561	-0.0020449983
114	0xbd92dc3d	-0.07170913
115	0x3cb25688	0.021769777
116	0xbe17c5b1	-0.14821507
117	0xbd46e964	-0.048562422
118	0x3dca0b8b	0.09865483
119	0x3da9cffa	0.082916215
120	0xbcb224fb	-0.02174615
121	0x3dae485f	0.085098974
122	0x3e052507	0.13002406
123	0x3ca4479f	0.020053683
124	0xbc84e88d	-0.01622417
125	0x3e33498e	0.17508528
126	0x3da42e15	0.08016602
127	0x3e4edfdf	0.20202588
128	0x3ca31419	0.019907044
129	0x3d9b859e	0.07593845
130	0xbd8940f6	-0.067018434
131	0xbdb9cc60	-0.090721846
132	0x3c6606b6	0.014039686
133	0xbdf6af24	-0.12045124
134	0xbd74634f	-0.05966502
135	0x3cea471a	0.028598357
136	0x3d1a6fa7	0.037704136
137	0xbdf684c7	-0.12037044
138	0x3e14737d	0.1449718
139	0x3d6b32ba	0.057421423
140	0xbd25f5f6	-0.04051777
141	0xbe13fa3a	-0.14450923
142	0x3ca52a84	0.020161875
143	0xbe0e933e	-0.13923356
144	0x3d22da33	0.039758872
145	0xbe02c7e7	-0.12771569
146	0xbc8f526b	-0.017495355
147	0xbdb0fa68	-0.08641511
148	0x3d3d9262	0.04628218
149	0x3dc2fbfa	0.09520717
150	0xbd964c04	-0.073387176
151	0xbe512337	-0.2042359
152	0x3cded5cc	0.027201556
153	0x3e663f6f	0.22485135
154	0xbc34a6b8	-0.011026077
155	0xbe136ccf	-0.14396976
156	0xbdf52e65	-0.1197174
157	0x3dc3ef69	0.09567148
158	0x3e2efccc	0.17088622
159	0xbde9f786	-0.114241645
160	0xbc555989	-0.013021835
161	0x3d404c05	0.046947498
162	0xbdbee801	-0.09321595
163	0x3e6914f7	0.22761904
164	0x3e1a32fa	0.15058509
165	0xbccfe94e	-0.025379803
166	0x3d221608	0.039571792
167	0x3e20abed	0.15690584
168	0xbbff8db7	-0.007798876
169	0x3df44d38	0.11928791
170	0xbe004137	-0.12524877
171	0xbd6d5087	-0.057938125
172	0xbdb183de	-0.0866773
173	0xbcc49a4f	-0.023999361
174	0x3bb8db08	0.005641345
175	0xbd805e17	-0.06267946
176	0xbd17fc50	-0.03710586
177	0xbdc1fb68	-0.0947178
178	0x3dcfc67e	0.10145281
179	0x3e0a7a3e	0.13523194
180	0x3d144a34	0.036203578
181	0xbd04c33d	-0.032412756
182	0x3d8a4a6a	0.067524746
183	0xbd0b715e	-0.034043662
184	0xbc8ae535	-0.016954998
185	0xb9830bf6	-0.0002499518
186	0xbe76851a	-0.24074212
187	0xbc5618a8	-0.013067402
188	0x3cf50f39	0.029914485
189	0x3d08d969	0.033410463
190	0xbbb73734	-0.0055912975
191	0xbda20a42	-0.07912113
192	0x3e6eefd6	0.23333678
193	0x3d75156a	0.059834875
194	0xbda42532	-0.08014907
195	0x3d39d2c9	0.045367036
196	0x3d67bab4	0.05657454
197	0xbd173cc3	-0.03692318
198	0x3da360bd	0.07977436
199	0x3dec1e55	0.11529223
200	0xbd794962	-0.060861
201	0x3e75e83b	0.2401437
202	0xbcb3ec07	-0.021963133
203	0xbe51ac0c	-0.20475787
204	0xbe2e349d	-0.17012258
205	0x3d0fd871	0.035118524
206	0xbd511955	-0.05104955
207	0xbcc968b7	-0.024586065
208	0x3c8329be	0.016011115
209	0x3e477391	0.19477679
210	0x3da858fd	0.08220098
211	0xbe32200b	-0.17395036
212	0xbbe8508e	-0.007089681
213	0x3a462e1d	0.0007559972
214	0xbdc91a41	-0.09819461
215	0xbd83342c	-0.06406435
216	0xbdc4f904	-0.096178085
217	0xbb0020f0	-0.0019550882
218	0xbd3b24e2	-0.04568947
219	0xbc7de08c	-0.015495431
220	0xba67fa5a	-0.0008849256
221	0xbe2c903a	-0.16851893
222	0x3cd6b9c8	0.026211634
223	0xbd19e237	-0.03756925
224	0x3d8730e3	0.06601121
225	0x3dd51b68	0.10405618
226	0x3e014bd7	0.12626587
227	0xbda455ee	-0.08024202
228	0xbe5d7bff	-0.21629332
229	0x3d64d34b	0.055865567
230	0xbd3f6dec	-0.04673569
231	0xbcaae960	-0.020863235
232	0x3b972f31	0.00461378
233	0x3cd57092	0.026054654
234	0xbdd0e013	-0.10198989
235	0x3ad79fe3	0.0016450848
236	0xbe0421a9	-0.12903465
237	0xbd869d3f	-0.06572961
238	0x3d910acd	0.07082138
239	0x3de6fc1d	0.112785555
240	0xbd1d8b94	-0.03846319
241	0xbe570e16	-0.21001467
242	0x3d25aea2	0.040449746
243	0x3e12b933	0.1432846
244	0x3afdb38e	0.001935588
245	0x3d983e1d	0.07433722
246	0xbd08de33	-0.03341503
247	0x3d68f780	0.05687666
248	0x3d3d6e7b	0.04624794
249	0x3c0417de	0.008062331
250	0xbe001d80	-0.12511253
251	0xba759acc	-0.0009369075
252	0xbb334852	-0.0027356339
253	0x3d9b43a8	0.07581264
254	0x3b91d7f0	0.0044507906
255	0xbd912151	-0.07086433

view2_user_B_p f4 [3, 1, 3]
0	0x3f0fde8c	0.56198955
1	0x3e978b67	0.29598543
2	0xbf81d79e	-1.0143926
3	0x3d113b8f	0.03545719
4	0x3f26644d	0.64996797
5	0x3eded9e4	0.43525612
6	0x3d29d1bf	0.041459795
7	0x3ec4cd49	0.3843787
8	0x3f44ec2f	0.7692289

view2_user_W_q f4 [3, 64, 4]
0	0xbe5d03eb	-0.21583526
1	0xbc072eef	-0.008250936
2	0xbd28cdcf	-0.0412119
3	0xbdcf93cf	-0.10135614
4	0x3b4d33d8	0.003131142
5	0xbda14a5f	-0.07875513
6	0x3ceb5e8c	0.028731607
7	0x39d50a2a	0.000406341
8	0xbd64fd00	-0.055905342
9	0xbdfc9859	-0.123337455
10	0x3d746dc0	0.05967498
11	0x3d9074f3	0.07053556
12	0x3dac3447	0.084084086
13	0x3d3837c7	0.04497507
14	0xbe112b4f	-0.14176677
15	0x3c94392c	0.018093668
16	0xbd74e439	-0.059787963
17	0xbdfe8e67	-0.12429505
18	0xbd5a08db	-0.0532311
19	0xbb6d569c	-0.0036214953
20	0xbd9b986a	-0.0759743
21	0x3d83356c	0.06406674
22	0xbdf5c3fa	-0.1200027
23	0x3e153bf6	0.14573655
24	0x3c91a606	0.017779361
25	0xbd63278b	-0.055457633
26	0xbd158a66	-0.03650894
27	0x3dbfd374	0.09366503
28	0xbdd625c8	-0.10456425
29	0x3d5de45b	0.054172855
30	0x3ce51e68	0.0279686
31	0xbdbe5311	-0.092931874
32	0xbe14d7b6	-0.14535412
33	0xbe7149cc	-0.23563308
34	0x3cf02d5a	0.0293185
35	0x3d8d326c	0.06894383
36	0x3d1da336	0.03848573
37	0xbd31b240	-0.043382883
38	0xbe49ea6f	-0.19718336
39	0x3d18dbea	0.0373191
40	0xbceab6cd	-0.02865162
41	0xbdae5f8f	-0.0851432
42	0xbe87c385	-0.26516357
43	0x3ddda6b1	0.108228095
44	0x3d668a2b	0.05628411
45	0x3db48483	0.08814337
46	0x3d77e6fd	0.060523022
47	0x3d4fdbed	0.050746847
48	0x3bd156ea	0.006388535
49	0x3e6a5d58	0.2288717
50	0x3dcb163e	0.09916352
51	0xbe2a28bf	-0.16617106
52	0x3c464d08	0.012103327
53	0xbd6a8994	-0.05726011
54	0x3c96ee93	0.018424308
55	0x3daeb49e	0.08530544
56	0xbdbc7cd4	-0.092034966
57	0xbcadf531	-0.02123508
58	0x3dab6cd5	0.083703674
59	0xbe0d6868	-0.13809359
60	0xbc8ef01f	-0.017448483
61	0xbd78941a	-0.060688116
62	0x3d33eb8e	0.043925814
63	0xbd120c3d	-0.035656203
64	0x3caf48f7	0.021397097
65	0x3d6464d2	0.055760212
66	0xba3174e9	-0.0006769435
67	0x3e3cce8f	0.18438171
68	0xbd851246	-0.06497626
69	0xbdcb3679	-0.09922499
70	0xbe40df69	-0.18835224
71	0xbdd3157b	-0.103068314
72	0xbdbe5654	-0.092938095
73	0xbd28ba5d	-0.041193355
74	0xbbd9c0a4	-0.006645279
75	0xbd9dc5c8	-0.077037394
76	0xbe38aedc	-0.18035454
77	0x3df10709	0.1176892
78	0xbcf09f58	-0.029372856
79	0xbd639ab9	-0.055567477
80	0x3dc1d24e	0.094639406
81	0x3db52aae	0.08846031
82	0x3e028ab9	0.12748231
83	0xbdb756e1	-0.08952118
84	0xbcfa203b	-0.030532947
85	0xbb59381e	-0.003314502
86	0xbdcae0a4	-0.09906128
87	0xbd62104d	-0.055191327
88	0xbdb5d205	-0.08877949
89	0x3cc5149a	0.024057675
90	0xbdb6f3f7	-0.08933251
91	0xbd7ec288	-0.06219724
92	0xbbcd1ec2	-0.00625977
93	0x3d7d339c	0.061816797
94	0x3e2995a9	0.16560997
95	0xbdf4195f	-0.11918902
96	0x3cb306ea	0.021853883
97	0x3dbac1d5	0.09119002
98	0x3d460c8c	0.04835181
99	0xbd8506d0	-0.0649544
100	0xbdc5a2ee	-0.09650217
101	0x3cca7c1e	0.024717387
102	0xbdf5977e	-0.119917855
103	0x3d203721	0.039115075
104	0xbd8ea8da	-0.069658
105	0xbe202f46	-0.15643033
106	0x3e1aafac	0.15106076
107	0xbd03290f	-0.03202158
108	0x3d5e08d5	0.05420764
109	0xbba544eb	-0.005043616
110	0x3d1f6a94	0.03892
111	0xbdac7735	-0.084211744
112	0x3da1ea33	0.07905998
113	0x3e04f1b7	0.12982832
114	0x3d5730e1	0.05253685
115	0xbdd2f27c	-0.103001565
116	0xbdee3bb7	-0.116324835
117	0x3d5da93d	0.054116476
118	0x3e22cf5e	0.15899417
119	0x3d7e5d4c	0.062100694
120	0xbd7f43b6	-0.062320434
121	0xbd06a2a3	-0.032869946
122	0xbac369ac	-0.0014908812
123	0xbd790229	-0.060793076
124	0xbe17df88	-0.14831364
125	0xbe130d19	-0.14360465
126	0xbde91cf5	-0.11382476
127	0xbe32e492	-0.17470005
128	0x3c96482d	0.018344963
129	0xbdc86344	-0.097845584
130	0x3ce6d8a4	0.028179474
131	0xbd198782	-0.037482746
132	0x3d4e3b65	0.05034961
133	0x3d9cc2aa	0.07654317
134	0xbd94a1fb	-0.07257458
135	0x3dca2ef8	0.0987224
136	0x3e65a20c	0.22425097
137	0xbd9002f4	-0.07031813
138	0x3d279cbb	0.040920954
139	0xbd143131	-0.036179725
140	0x3deba4ec	0.11506066
141	0x3c868e59	0.016425299
142	0xbde2dff7	-0.11077874
143	0x3e09900c	0.13433856
144	0xbe1d1eec	-0.15343827
145	0x3aa2daea	0.0012424861
146	0xbce39a82	-0.027783636
147	0x3c0536dd	0.008130756
148	0x3c47065d	0.012147513
149	0xbd8bfa5d	-0.068348624
150	0xbc918b11	-0.017766507
151	0x3d8abe0e	0.06774531
152	0x3d649bd5	0.055812676
153	0xbc4041c9	-0.011734434
154	0x3d1200c5	0.035645265
155	0x3dc597fc	0.09648129
156	0xbd1f12f3	-0.03883643
157	0xbdf8251d	-0.12116454
158	0xbe08d774	-0.13363439
159	0xbd942237	-0.072330885
160	0x3dc4c169	0.096072026
161	0xbcfcb742	-0.030849103
162	0xbd223c75	-0.039608438
163	0xbc222a2e	-0.009897752
164	0xbdf3befa	-0.1190166
165	0x3d012f70	0.03153938
166	0x3e148e7e	0.14507481
167	0x3dab244d	0.08356533
168	0xbdfacfb9	-0.12246651
169	0xbca059f6	-0.019574147
170	0x3c092b56	0.0083721485
171	0xbd37cee5	-0.044875044
172	0x3d8fbee8	0.07018834
173	0xbce8d704	-0.02842284
174	0xbdc03188	-0.09384447
175	0xbcdd4c0b	-0.0270138
176	0xbdf7e548	-0.12104279
177	0xbdc8d100	-0.098054886
178	0xbc1db597	-0.009625814
179	0x3e0e0ff5	0.13873275
180	0xbd3e3146	-0.04643371
181	0x3d5c7216	0.05381974
182	0xbd45e808	-0.048316985
183	0x3e17e821	0.14834644
184	0x3c17e37d	0.009270546
185	0x3d014fac	0.03157012
186	0x3ddbf6a6	0.10740404
187	0xbde0c1c2	-0.10974456
188	0xbd7bf206	-0.06151011
189	0x3de214fd	0.110391594
190	0xbdcc4c9f	-0.09975552
191	0x3d448a74	0.0479836
192	0xbc3fc011	-0.011703507
193	0xbc636c5e	-0.013880817
194	0x3ca5447a	0.020174254
195	0x3dd80e0b	0.105495535
196	0x3dc9a175	0.098452486
197	0x3dd3292f	0.103105895
198	0xbd9e8c5f	-0.077416174
199	0x3d9aa3f2	0.07550801
200	0x3d0846b5	0.033270556
201	0xbd00d278	-0.03145072
202	0xbe3286d3	-0.17434244
203	0x3dfc79e8	0.12327939
204	0xbb9fc674	-0.0048759524
205	0xbb995ca4	-0.004680233
206	0xbd99de14	-0.07513061
207	0x3c9522b9	0.018205034
208	0xbcb0fd1d	-0.021605069
209	0x3db4b23e	0.088230595
210	0x3dd97209	0.106174536
211	0x3d435f15	0.0476981
212	0x3d30bbd0	0.043147862
213	0xbdfb98e6	-0.122850224
214	0x3d8204a5	0.06348542
215	0x3c057028	0.008144416
216	0xbe37a60b	-0.17934434
217	0x3db99733	0.09062042
218	0xbbd18760	-0.006394312
219	0xbd89bc8e	-0.06725417
220	0xbc6ea5e2	-0.014565917
221	0x3ea87bc3	0.32906923
222	0x3b5bccb7	0.0033538768
223	0xbd93bd1a	-0.07213803
224	0x3dc20a96	0.09474675
225	0x3daf6380	0.085639
226	0xbe22ec6a	-0.15910497
227	0xbde4af29	-0.11166222
228	0x3d07eca0	0.033184648
229	0xbd105298	-0.035235018
230	0xbaf4a50f	-0.0018664914
231	0xbd31865f	-0.043341037
232	0xbdd15c27	-0.10222655
233	0xbd4730f5	-0.048630673
234	0x3cff4ca9	0.031164484
235	0xbc30ede0	-0.010798901
236	0xbe2b58a5	-0.16733034
237	0x3cb868b8	0.022510871
238	0xbdcae288	-0.09906489
239	0x3e469f34	0.19396669
240	0x3c72390f	0.014784112
241	0xbde1b148	-0.11020142
242	0xbe4451d7	-0.19171844
243	0x3c8b2cbe	0.016989108
244	0x3e25f980	0.16208458
245	0xbd871ea2	-0.065976396
246	0xbd94cc44	-0.07265523
247	0x3dad94e9	0.08475668
248	0x3d7aefd0	0.06126386
249	0xbd9782ef	-0.073980205
250	0xbdfcbb49	-0.12340409
251	0x3d642d54	0.05570729
252	0x3cb1ab10	0.021688014
253	0x3d0fd834	0.035118297
254	0xbaa06f28	-0.0012240158
255	0xbda3b954	-0.07994333

view2_user_B_q f4 [3, 1, 4]
0	0x3ebe96f3	0.3722454
1	0xbe02edf2	-0.12786081
2	0x3d8910e6	0.06692676
3	0xbe5b98cf	-0.2144501
4	0x3d5c3257	0.053758945
5	0x3dfe9800	0.124313354
6	0x3eb5ad6b	0.3548387
7	0x3e1e9f15	0.15490372
8	0xbeaa43e3	-0.33254918
9	0x3deea344	0.11652234
10	0xbdb4248b	-0.087960325
11	0x3e4c90ec	0.19977158

view2_user_Q f4 [3, 1, 4]
0	0x3dcb7c38	0.09935802
1	0x3e32fa8c	0.17478389
2	0xbeea64f6	-0.45780152
3	0x3f41abce	0.7565278
4	0xbf2efc61	-0.6835385
5	0xbeec32ce	-0.4613251
6	0xbeaa9419	-0.33316115
7	0x3d7b3dd5	0.061338264
8	0xbe9ac007	-0.3022463
9	0x3ee97778	0.4559896
10	0x3e6fa4ed	0.23402758
11	0x3e5eceb4	0.21758538

view3_user_X f4 [3, 1, 3]
0	0xbeb852d8	-0.36000705
1	0xbe2d7037	-0.16937338
2	0x3ebb9d5d	0.36643496
3	0xbf268dbc	-0.6506002
4	0x3e1480f8	0.14502323
5	0xbd380db4	-0.044934943
6	0xbe86b08c	-0.2630657
7	0x3eb7e6f5	0.35918394
8	0xbc58bf1c	-0.013229158

view3_user_V f4 [3, 64, 3]
0	0xbdbff8b1	-0.09373606
1	0xbd9000d3	-0.07031407
2	0xbe1dbbd9	-0.1540369
3	0x3ca11878	0.019664988
4	0xbdb00691	-0.085950024
5	0xbdfc705b	-0.123261176
6	0x3cfc0123	0.03076226
7	0x3da0ba47	0.078480296
8	0x3dcf81f5	0.10132209
9	0xbdfbe3fb	-0.12299343
10	0x3dc6248f	0.09674942
11	0x3d719d20	0.058987737
12	0xbe3709ed	-0.1787488
13	0xbdfdd489	-0.123940535
14	0x3c04fed9	0.008117401
15	0x3b7ec13e	0.0038872506
16	0x3d8f2123	0.06988742
17	0xbe29cfe3	-0.16583209
18	0x3d6414ec	0.055684015
19	0xbd8c1e98	-0.06841773
20	0xbb006070	-0.0019588731
21	0x3d5d238b	0.053988975
22	0xbc8f656b	-0.017504415
23	0xbdabd44a	-0.083901
24	0x3cf07033	0.029350376
25	0x3e740d01	0.23833086
26	0xbc7bfcad	-0.015380067
27	0xbd10403c	-0.03521751
28	0x3d82ab01	0.06380273
29	0x3e00c70d	0.12575932
30	0xbe3a0488	-0.18165791
31	0x3d98eeb5	0.07467405
32	0xbaa27b56	-0.0012396376
33	0xbe4b11e7	-0.19831048
34	0x3c51aa09	0.012796887
35	0xbcefd1cd	-0.029274845
36	0xbcd71855	-0.02625672
37	0xbe091827	-0.1338812
38	0xbc5e6ece	-0.013576223
39	0x3d85d3a1	0.06534506
40	0x3d430043	0.04760767
41	0xbccc844e	-0.024965432
42	0x3d6aa01a	0.05728159
43	0xbe02d200	-0.12775421
44	0xbce1d967	-0.027569486
45	0x3dd27734	0.102766424
46	0xbb73e829	-0.0037217236
47	0xbdaf07ad	-0.08546386
48	0xbc8ec86d	-0.017429555
49	0xba80d023	-0.0009827655
50	0x3d7b0fe4	0.06129445
51	0xbcd65f5d	-0.02616852
52	0x3cc58e37	0.024115665
53	0x3d15eb7a	0.03660152
54	0x3d3acc07	0.045604732
55	0xb89efdd4	-7.581306e-05
56	0xbce252f6	-0.02762745
57	0xbde534f0	-0.11191738
58	0x3dc5ff36	0.09667818
59	0x3cb81c4f	0.022474436
60	0x3def686d	0.116898395
61	0xbdc40f44	-0.09573224
62	0x3b89f790	0.00421042
63	0xbdfd01f9	-0.12353892
64	0xbc93b73c	-0.018031709
65	0x3d1cc827	0.038276818
66	0x3d514816	0.051094137
67	0xbcf97859	-0.030452894
68	0x3d93b3da	0.07212038
69	0x3d3a2be2	0.045452006
70	0x3d193aa9	0.03740946
71	0x3cd8aacd	0.026448632
72	0x3e339fd2	0.17541435
73	0x3d99ec64	0.07515791
74	0x3ced3e9e	0.028960522
75	0xbdfc58fd	-0.12321661
76	0xbc9b36b0	-0.018946975
77	0xbdd208f1	-0.10255612
78	0x3cf832e1	0.030297698
79	0xbd2d89f7	-0.0423679
80	0xbda4f843	-0.08055165
81	0x3d3cd8f7	0.04610535
82	0xbd9b8e8f	-0.0759555
83	0x3cae4ae6	0.021275949
84	0x3cbf7fc7	0.023376359
85	0x3b93602b	0.004497548
86	0x3e070ccb	0.13188474
87	0xbe143a38	-0.14475334
88	0x3d0185ea	0.03162185
89	0x3db70222	0.08935954
90	0x3e17ce6d	0.14824839
91	0xbc833535	-0.016016582
92	0x3dcdbfd1	0.10046352
93	0x3e02825a	0.12745038
94	0xbddcdd8c	-0.10784444
95	0xbc9204d6	-0.017824572
96	0xbe35f8e6	-0.17770728
97	0x3e2cfa68	0.16892397
98	0xbd067184	-0.0328231
99	0x3e1be362	0.15223458
100	0x3e1022d6	0.14075789
101	0xbe3316ec	-0.17489213
102	0xbb02e1d6	-0.0019971034
103	0xbd3aba6a	-0.045587935
104	0x3d360d8e	0.04444652
105	0xbd6bf9ae	-0.05761116
106	0x3d928ce3	0.07155778
107	0xbd9314fd	-0.071817376
108	0x3e05d059	0.1306776
109	0xbce4c67e	-0.02792668
110	0x3dfc7482	0.123269096
111	0x3d25617c	0.04037617
112	0x3df11b16	0.11772744
113	0xbd3a4c79	-0.045483086
114	0x3df07951	0.11741889
115	0x3bdcd6f1	0.00673949
116	0x3e276d83	0.16350369
117	0x3c6c8837	0.014436773
118	0x3e2c8c99	0.16850509
119	0xbdb1bf73	-0.08679094
120	0x3e948168	0.2900498
121	0xbb3cc7e7	-0.0028805675
122	0xbc3a4e61	-0.011371226
123	0xbd03a772	-0.03214211
124	0xbcebf0de	-0.028801378
125	0xbdab6c31	-0.08370245
126	0xbe3722ff	-0.17884444
127	0xbd71ff89	-0.059081588
128	0x3d8f5f01	0.070005424
129	0xbdd5b432	-0.1043476
130	0xbe0ba2ea	-0.13636366
131	0xbd371358	-0.044696182
132	0x3d6a58a7	0.05721345
133	0x3e563817	0.20919834
134	0xbd234833	-0.039863776
135	0xbdc3d2ec	-0.095617145
136	0x3b3c501c	0.0028734272
137	0x3dcc382e	0.09971653
138	0x3d805e21	0.06267954
139	0xbc1be631	-0.009515331
140	0xbd465c97	-0.048428144
141	0xbd6e3757	-0.058158245
142	0x3e1f1e0a	0.15538803
143	0xbd3d725c	-0.04625164
144	0x3d8abbc9	0.067740984
145	0x3e3ac049	0.18237413
146	0xbe12540d	-0.14289875
147	0x3cb07f0f	0.021544961
148	0xbdcab971	-0.098986514
149	0x3e15b822	0.14621022
150	0x3d70aa88	0.05875638
151	0xbc50d85b	-0.012746896
152	0x3c5c6175	0.01345097
153	0xbd20d211	-0.039262835
154	0xbe1673b1	-0.1469257
155	0xbcff1428	-0.031137541
156	0xbd5a9f68	-0.053374678
157	0xb9a85911	-0.00032109817
158	0x3e6f9a36	0.2339867
159	0xbc9d5392	-0.019204888
160	0x3e1f66b1	0.15566517
161	0xbcfaed0c	-0.03063061
162	0x3d56455a	0.052312233
163	0xbda06ec1	-0.07833625
164	0xbd9ebd92	-0.077510014
165	0x3d396371	0.04526085
166	0xbdf572a1	-0.11984754
167	0x3c9f84f3	0.019472575
168	0x3c79674a	0.01522238
169	0xbd92f5c6	-0.07175784
170	0xbd7a85f7	-0.061162915
171	0x3e0cddaa	0.13756433
172	0x3d9b7233	0.07590141
173	0x3bd09f9e	0.006366684
174	0xbdb28ae8	-0.087179005
175	0x3e08d400	0.13362122
176	0xbda20592	-0.07911219
177	0x3db9959c	0.09061739
178	0xbd7e8367	-0.062137034
179	0x3d539f33	0.051665496
180	0xbda52d72	-0.08065309
181	0x3c971ca2	0.01844627
182	0x3de4bdbf	0.11169004
183	0xbe22e0e8	-0.15906107
184	0xbd47d26e	-0.048784666
185	0x3df86de8	0.12130338
186	0xbd48f1b1	-0.04905862
187	0x3d028565	0.031865496
188	0xbd5e328c	-0.054247424
189	0xbd66dfb8	-0.0563657
190	0xbca79fd0	-0.020461947
191	0xbe0b253b	-0.13588421
192	0xbdba877d	-0.091078736
193	0x3ca0c8ba	0.019626964
194	0xbce15126	-0.027504515
195	0xbdd8235c	-0.10553619
196	0x3dda6665	0.106640615
197	0x3d88be62	0.06676938
198	0x3dc90ed6	0.09817283
199	0x3db7db83	0.089774154
200	0xbe287bc1	-0.16453458
201	0xbcf771b4	-0.030205585
202	0xbd0030d4	-0.031296566
203	0xbda41fa7	-0.0801385
204	0xbdb39a18	-0.087696254
205	0x3dff0ab1	0.12453211
206	0xbe342c55	-0.17595036
207	0xbc0a74ee	-0.00845073
208	0x3df12031	0.11773718
209	0x3d38ed4d	0.045148183
210	0x3cdabf1f	0.026702462
211	0xbd6077d5	-0.05480178
212	0x3d85011f	0.064943545
213	0x3c5da4d7	0.01352807
214	0xbde95cd3	-0.11394658
215	0x3d9b893b	0.07594534
216	0x3ca40c0e	0.02002528
217	0x3db44d62	0.08803822
218	0xbe1ce1b4	-0.15320474
219	0xbd4ed053	-0.050491642
220	0x3e22b193	0.15888052
221	0xbe81c8e7	-0.2534859
222	0xbc18d724	-0.009328637
223	0xbccc2961	-0.024922075
224	0xbdb3e035	-0.087829985
225	0x3c495363	0.012287947
226	0xbddc87b8	-0.10768074
227	0x3c56ff1a	0.013122344
228	0xbbfa5b96	-0.0076403124
229	0x3cf8a472	0.030351851
230	0x3ca0e1da	0.019638944
231	0x3c307d00	0.01077199
232	0xbd975e84	-0.07391074
233	0x3c9050fa	0.017616738
234	0xbc487380	-0.012234569
235	0xbc363b80	-0.011122584
236	0xbb9aa7fc	-0.0047197323
237	0x3e2fca50	0.1716702
238	0x3d75bbdc	0.05999361
239	0x3d1f671e	0.0389167
240	0x3df5eb14	0.12007728
241	0x3dcd8a45	0.100361384
242	0xbe1e8b0a	-0.15482727
243	0xbca7b486	-0.020471822
244	0xbd3dd040	-0.04634118
245	0x3cd3e57f	0.025866268
246	0x3c8f17a6	0.017467331
247	0xbc919805	-0.017772684
248	0xbdece979	-0.11567969
249	0xbcfd6745	-0.030933032
250	0xbc3e5b9b	-0.01161852
251	0x3c4b1035	0.012394001
252	0xbe09f4cc	-0.13472289
253	0xbd17a426	-0.03702178
254	0xbc03fdec	-0.008056145
255	0xbc4488bd	-0.011995492

view3_user_W_p f4 [3, 64, 3]
0	0x3c4c85d8	0.012483083
1	0xbda26886	-0.079300925
2	0x3d85bdf6	0.06530373
3	0x3d3d118f	0.046159323
4	0xbd0a95e8	-0.033834368
5	0x3ddc9884	0.107712775
6	0xbc408cc3	-0.01175231
7	0xbd1ffe3e	-0.039060824
8	0x3e2335d7	0.15938507
9	0x3defc21f	0.117069475
10	0xbdacff5d	-0.08447144
11	0x3c92a6e3	0.017901843
12	0xbcdbb115	-0.026817838
13	0xbd504346	-0.050845407
14	0xbd9c938c	-0.0764533
15	0x3cf82e1f	0.03029543
16	0x3c5efa84	0.013609532
17	0x3d261a5f	0.040552493
18	0xbce734ff	-0.028223513
19	0xbda82f64	-0.08212164
20	0xbe3e6f4a	-0.18597141
21	0x3e190679	0.14943875
22	0x3e23e563	0.16005473
23	0x3df39723	0.118940614
24	0x3d9a8dcf	0.07546579
25	0xbd06e42a	-0.032932438
26	0x3c7629cc	0.015024614
27	0x3e0c241f	0.13685654
28	0x3cb3464e	0.02188411
29	0x3e2d6cba	0.16936007
30	0xbcd268ed	-0.025684798
31	0xbe906357	-0.2820079
32	0x3cc2c730	0.02377662
33	0x3d484b22	0.048899777
34	0x3cac8e42	0.021063928
35	0x3d75f0d7	0.060044136
36	0xbdb4a7e9	-0.08821089
37	0x3dd67d55	0.10473124
38	0x3d485071	0.04890484
39	0xbd44e8ac	-0.048073456
40	0x3cf7e9b6	0.03026281
41	0x3e20652b	0.15663593
42	0xbe01b3b4	-0.12666208
43	0xbd73d833	-0.059532356
44	0xbdf83a3e	-0.12120484
45	0x3d8af8aa	0.0678571
46	0xbc77714e	-0.015102698
47	0x3d82b00e	0.06381236
48	0x3db1538e	0.08658515
49	0xbe0d32bd	-0.13788886
50	0xbd158e5f	-0.03651273
51	0x3d197e24	0.037473813
52	0xbe0880db	-0.13330404
53	0x3e1c92da	0.15290394
54	0x3dcc08d2	0.0996262
55	0x3e09b081	0.13446237
56	0x3d950697	0.072766475
57	0xbd0c68c8	-0.034279615
58	0x3d60d9b8	0.054895133
59	0x3b9f30c4	0.0048581082
60	0xbcf0e983	-0.029408222
61	0xbdd01fbb	-0.10162302
62	0xbd88ebdd	-0.06685612
63	0xbdf5e613	-0.12006774
64	0xbdca70a8	-0.09884769
65	0x3cf8ffff	0.030395506
66	0x3beb8b16	0.007188211
67	0xbdb417b6	-0.08793585
68	0x3e1f4702	0.15554431
69	0x3e7758ce	0.2415497
70	0x3cc29d52	0.023756657
71	0x3dad42b5	0.08459989
72	0xbe083617	-0.13301884
73	0xbbf9b631	-0.007620596
74	0x3cfb7fd6	0.030700605
75	0xbb9c8590	-0.004776664
76	0xbd429c90	-0.04751259
77	0xb99efa5f	-0.0003032265
78	0xbd761f29	-0.06008831
79	0x3daa4dc1	0.08315612
80	0xbdeef953	-0.116686486
81	0x3d6a2306	0.057162307
82	0x3ca5e7c2	0.020252112
83	0xbc453086	-0.012035495
84	0x3c4b476d	0.012407166
85	0x3e47f61f	0.19527481
86	0xbd5d7996	-0.05407103
87	0x3e33d8ff	0.17563246
88	0x3db8f96f	0.09031951
89	0xbd185e0d	-0.03719907
90	0x3d5230c7	0.05131605
91	0xbd5a223d	-0.05325531
92	0xbd5b4323	-0.053530823
93	0xbdd1a0a3	-0.10235717
94	0xbe84b9d9	-0.2592304
95	0xbdb6b890	-0.08921921
96	0xbd69ee53	-0.05711205
97	0xbd415412	-0.047199316
98	0x3bf387cd	0.00743196
99	0x3dbf6c5b	0.09346839
100	0xbca15f17	-0.019698663
101	0xbd832d15	-0.06405083
102	0x3dd596be	0.104291424
103	0x3b942bc7	0.00452182
104	0x3d62c134	0.055360034
105	0x3e40b32d	0.1881835
106	0xbc2b6ee1	-0.010463447
107	0xbd5a0eb2	-0.05323667
108	0x3df1189b	0.11772271
109	0x3d21726d	0.039415766
110	0xbd0538cd	-0.032524873
111	0x3e685338	0.22687995
112	0x39e05126	0.0004278507
113	0xbd05d034	-0.03266926
114	0x3daee549	0.085398264
115	0x3d4144e1	0.04718483
116	0xbcd35041	-0.025795104
117	0x3da559fc	0.08073804
118	0xbdeaccfc	-0.11464879
119	0xbd56f0c3	-0.052475702
120	0x3d9464ce	0.072457895
121	0x3e16e3b1	0.14735295
122	0xbcd24751	-0.025668772
123	0xbc0b27e8	-0.008493401
124	0xbd2bcd76	-0.04194399
125	0x3c653c15	0.013991375
126	0x3e331c97	0.17491375
127	0xbe0efadc	-0.13962883
128	0xbe351089	-0.17682089
129	0x3e134630	0.14382243
130	0x3b5f5e0d	0.0034083158
131	0xbc342b92	-0.010996716
132	0x3e1a91bf	0.1509466
133	0x3df56ae9	0.11983282
134	0x3db15a3d	0.0865979
135	0x3b82aed8	0.003988128
136	0xbd0ad07a	-0.033890225
137	0x3d730d3b	0.05933879
138	0xbc4e5432	-0.012593316
139	0xbc9f6824	-0.019458838
140	0x3c4bddd9	0.012443029
141	0xbbe2e0ab	-0.006923755
142	0xbd316357	-0.04330763
143	0x3e124893	0.14285497
144	0x3d80c9c3	0.06288483
145	0xbe3ffe47	-0.18749343
146	0xbe0f6f24	-0.1400724
147	0xbcb35ac5	-0.021893868
148	0x3da297e2	0.079391256
149	0xbd81b977	-0.06334203
150	0x3d55ebda	0.05222688
151	0x3e78f576	0.24312386
152	0x3e536224	0.20642906
153	0x3d3a4584	0.04547645
154	0xbd8a51ba	-0.06753869
155	0xbd98a17b	-0.07452675
156	0x3d68af85	0.056808013
157	0x3c94bd01	0.01815653
158	0x3e65e9d1	0.22452475
159	0x3d2c264e	0.042028718
160	0xbd939c98	-0.07207602
161	0x3d357f14	0.044310644
162	0x3cf27e6b	0.029601296
163	0xbda93a99	-0.0826313
164	0x3da4cfd2	0.08047451
165	0x3bce0da9	0.0062882495
166	0xbde47b96	-0.11156385
167	0xbe02cfac	-0.12774533
168	0x3e04c14f	0.12964366
169	0x3af79736	0.0018889669
170	0x3dea16a2	0.11430098
171	0x3d2f7e8a	0.042845286
172	0xbd1be059	-0.03805575
173	0x3d314369	0.043277178
174	0x3dc177cc	0.094466776
175	0x3d77999e	0.060449235
176	0x3e0775bb	0.13228504
177	0xba872b23	-0.0010312538
178	0x3de99033	0.11404457
179	0xbab789d8	-0.0014002873
180	0xbd1e1fb3	-0.03860445
181	0xbde0d345	-0.109777965
182	0xbdb8e64e	-0.09028302
183	0xbdde53ca	-0.10855825
184	0x3dadce60	0.084866285
185	0x3e5865e4	0.21132618
186	0xbd0c70be	-0.034287207
187	0x3c80a1a6	0.01570208
188	0xbe6e3f63	-0.23266368
189	0xb974dec3	-0.00023352639
190	0xbc96b4ec	-0.018396817
191	0x3da3d854	0.08000246
192	0xbe16ce57	-0.1472715
193	0xbd90142d	-0.07035098
194	0x3d8ab15c	0.0677211
195	0x3bbfb644	0.005850585
196	0xbca3e371	-0.020005913
197	0x3d051b4a	0.032496728
198	0x3db950f3	0.09048643
199	0x3d489c10	0.048976958
200	0xbdb819e7	-0.089893155
201	0x3de05e44	0.1095548
202	0xbe01c8ac	-0.12674206
203	0x3db81f82	0.08990385
204	0xbc61a472	-0.013772117
205	0xbe192bc8	-0.14958107
206	0xbc8720dd	-0.016495163
207	0x3d8610af	0.06546151
208	0x3be4c171	0.006981068
209	0xbc566b5b	-0.013087119
210	0xbda7b0fd	-0.08188055
211	0x3d871091	0.06594957
212	0x3df27f2f	0.118406646
213	0xbe26fc92	-0.16307285
214	0x3d7e17c7	0.062034395
215	0x3d88bda5	0.06676797
216	0xbe042764	-0.12905651
217	0xbd99161f	-0.074749224
218	0xbde1dcbe	-0.11028431
219	0x3cd442f9	0.025910841
220	0x3c83b4a5	0.016077349
221	0x3bac8590	0.0052649453
222	0xbd28d389	-0.04121736
223	0x3d6af4f9	0.05736253
224	0xbca7913f	-0.020455
225	0xbdbb7c6f	-0.09154593
226	0x36b71dbe	5.4572874e-06
227	0x3d851d98	0.06499785
228	0xbd1f14ee	-0.03883832
229	0xbe3fb5f3	-0.18721752
230	0x3d650a5b	0.05591808
231	0xbe163f25	-0.14672525
232	0x3d2cc786	0.042182468
233	0x3dccdc53	0.10002961
234	0x3e44714d	0.19183846
235	0x3d131014	0.035904005
236	0xbd4c6d6e	-0.049909048
237	0x3dc4711c	0.095918864
238	0xbce99fe5	-0.028518626
239	0xbe10ce37	-0.14141165
240	0xbdd26a34	-0.10274163
241	0xbbebdddb	-0.007198078
242	0xbd53b92c	-0.051690266
243	0xbd88aaa3	-0.06673171
244	0x3d7f7d81	0.06237555
245	0x3d6fcaea	0.058543123
246	0xbb9ea66b	-0.004841616
247	0x3e7ff843	0.24997048
248	0xbd6e11a7	-0.058122303
249	0x3d3146b4	0.04328032
250	0xbd526692	-0.05136735
251	0xbdc1c2fc	-0.094610184
252	0xbc725428	-0.014790572
253	0xbe09876c	-0.13430566
254	0xbd917c76	-0.07103817
255	0xbe1c1a1a	-0.15244332

view3_user_B_p f4 [3, 1, 3]
0	0x3f0ce598	0.5503783
1	0x3dda6f1c	0.10665724
2	0xbf47710f	-0.7790689
3	0x3ebb7415	0.36612
4	0xbdea1949	-0.11430604
5	0x3ee7fce4	0.45310128
6	0x3e8123a9	0.2522252
7	0x3ccb4e14	0.024817504
8	0xbe11239c	-0.1417374
